neuralNetwork/model.pth (torch, 171636 bytes, 6 tensors)

fc1.weight f4 [144, 144]
0	0x3d845368	0.06461221
1	0x3d5314de	0.051533572
2	0xbcbf0c1c	-0.023321204
3	0x3b561800	0.0032668114
4	0xbce24ac0	-0.027623534
5	0xbd824004	-0.06359866
6	0x3b9a24a8	0.004704077
7	0xbcccbc9c	-0.02499228
8	0x3c989be2	0.018629018
9	0xbd88ae26	-0.06673841
10	0xbd89768c	-0.06712064
11	0xbbe6f95c	-0.007048769
12	0x3d95d26c	0.073155254
13	0xbcbd7d4b	-0.023131033
14	0x3d9cb294	0.076512486
15	0x3d69aa5e	0.05704724
16	0x3d5f5172	0.05452103
17	0x3d572ba3	0.05253185
18	0xbd293158	-0.041306823
19	0x3d9b6f2d	0.075895645
20	0x3cc96576	0.024584513
21	0x3c028225	0.007965599
22	0xba3254ab	-0.00068027776
23	0x3d99f762	0.07517888
24	0xbd9540d6	-0.07287757
25	0xbd9e375a	-0.07725401
26	0x3d9510dd	0.07278607
27	0xbd09bf8e	-0.033629946
28	0x3c9d6cd0	0.019216925
29	0xbd83e095	-0.0643932
30	0xbda0f96b	-0.07860073
31	0xbd335b1a	-0.043788053
32	0x3d5f11cb	0.054460328
33	0xbd89b54d	-0.067240335
34	0x3d77ad63	0.06046809
35	0xbc1e42a9	-0.009659448
36	0xbd7787ac	-0.06043212
37	0x3d770295	0.060305197
38	0xbcbff6f2	-0.023433182
39	0x3bdfdc6b	0.006831696
40	0x3d7be435	0.061496932
41	0xbd8fbbd8	-0.0701825
42	0xbcfd07be	-0.03088748
43	0xbd6fe938	-0.058572024
44	0xbcefbf44	-0.029266007
45	0xbd4d564e	-0.050131135
46	0xbd21d9ce	-0.039514355
47	0x3d8d33d1	0.06894649
48	0x3ca6f3e8	0.020379975
49	0xbda45db3	-0.08025684
50	0xbc99b146	-0.018761288
51	0x3d9d1108	0.07669264
52	0xbd51e2f5	-0.051241834
53	0xbd9d48ca	-0.07679899
54	0xbcab864b	-0.02093806
55	0x3c1098b5	0.008825471
56	0x3d1df708	0.038565665
57	0x3d0633c1	0.0327642
58	0xbd90a332	-0.07062377
59	0xbcaecaf2	-0.021337006
60	0xbcae6bd8	-0.021291658
61	0xb8c46556	-9.3648836e-05
62	0xbd3aefa3	-0.04563869
63	0x3d1c311b	0.038132768
64	0x3da4a55d	0.08039353
65	0xbd35ba18	-0.044366926
66	0xbc84c7d5	-0.016208569
67	0xba725600	-0.00092443824
68	0x3cec9924	0.028881617
69	0x3d76a3a3	0.06021465
70	0xbc37c2fd	-0.011215922
71	0x3c83ab6e	0.016072955
72	0x3cc608a3	0.02417404
73	0xbd0dfb88	-0.034663707
74	0xbc6daab9	-0.0145060355
75	0xbd1b03a2	-0.03784526
76	0xbd0771ae	-0.033067398
77	0x3d764bd6	0.060130917
78	0xbda872dc	-0.08225033
79	0x3d9f4212	0.07776274
80	0x3ca0cb5b	0.019628217
81	0xbcab8711	-0.020938428
82	0x3cfa7e7b	0.030577889
83	0x3c78e177	0.015190474
84	0x3c91e496	0.017809194
85	0x3d3ecf28	0.04658428
86	0xbd8edc28	-0.06975585
87	0x3d984edc	0.07436916
88	0x3c95ebde	0.018300947
89	0xbd970fd2	-0.07376064
90	0x3d32528c	0.043535754
91	0x3d4fa7ee	0.05069726
92	0xbd83276c	-0.064040035
93	0xbdab6d64	-0.08370474
94	0xbdaa3c3c	-0.0831227
95	0xbca5b7a2	-0.020229165
96	0xbd28d642	-0.041219957
97	0x3c35b0ef	0.011089548
98	0x3b778457	0.003776809
99	0x3da31613	0.07963195
100	0x3d6217ad	0.05519836
101	0x3d973f40	0.07385111
102	0xbca05e80	-0.019576311
103	0xbd5f6294	-0.05453737
104	0xbd380d86	-0.044934772
105	0xbd4414ad	-0.04787128
106	0x3cc29786	0.023753893
107	0xbd82f52c	-0.06394419
108	0x3c70640e	0.014672292
109	0x3d66c5b0	0.056340873
110	0x3d9749ce	0.07387124
111	0xbd393be2	-0.045223124
112	0xbd523193	-0.05131681
113	0xbda686aa	-0.08131154
114	0x3d924c18	0.0714342
115	0x3b77c098	0.0037804004
116	0xbd572e1b	-0.052534204
117	0xbd58e019	-0.05294809
118	0xbda8a9d4	-0.08235517
119	0x3cc44bc6	0.023961913
120	0xbda835b6	-0.082133695
121	0xbc20c178	-0.009811752
122	0x3d1c88b8	0.038216323
123	0x3d220d76	0.03956362
124	0xbc8dcf3d	-0.017310733
125	0xbd851fcb	-0.06500205
126	0xbd95f4c1	-0.07322074
127	0x3d25563e	0.04036545
128	0xbd9ba43b	-0.07599684
129	0x3d5fdeba	0.054655768
130	0x3d02cebe	0.031935446
131	0x3a1c9f41	0.00059746584
132	0xbd843ea1	-0.06457258
133	0x3d201f80	0.03909254
134	0xbda7f412	-0.082008496
135	0x3d8e5d3f	0.06951379
136	0xbd7104c8	-0.05884245
137	0x3cc014e8	0.023447469
138	0x3c4837f6	0.012220373
139	0xbd013db5	-0.03155299
140	0x3d44f310	0.048083365
141	0x3d891912	0.06694235
142	0x3ca1262b	0.01967152
143	0x3c037f73	0.008025992
144	0xbcff3416	-0.031152766
145	0xbcf34866	-0.029697608
146	0xbccc5149	-0.024941104
147	0xbc8dfe56	-0.01733319
148	0xbd32a6a3	-0.04361595
149	0xbd20e5f6	-0.039281808
150	0x3d6a307d	0.05717515
151	0xbd619407	-0.05507281
152	0xbc83d9a5	-0.016094992
153	0x3c419d57	0.011817298
154	0xbd3fa22c	-0.04678552
155	0xbce3ed7b	-0.0278232
156	0xbe04ab72	-0.12956026
157	0x3d798008	0.060913116
158	0xbde00c1d	-0.109398104
159	0x3b9c35c8	0.0047671534
160	0xbd2b63b0	-0.041843116
161	0x3da22bb4	0.07918492
162	0xbc3ff716	-0.011716625
163	0x3cab9701	0.020946028
164	0x3d68271e	0.05667793
165	0xbd995533	-0.074869536
166	0xbd2abb0e	-0.041682296
167	0xbbd46400	-0.0064816475
168	0x3c390268	0.011292078
169	0x3cfe9a40	0.031079412
170	0xbe379393	-0.17927389
171	0x3d4c83d8	0.049930423
172	0xbdc049e8	-0.093890965
173	0x3c52961f	0.0128531745
174	0xbcf218d0	-0.029552847
175	0xbb8e69d3	-0.0043461113
176	0x3cb4706b	0.022026261
177	0xbc05c97a	-0.008165712
178	0x3d3d5b5d	0.04622971
179	0x3d28e6dc	0.04123579
180	0xbc008a49	-0.00784547
181	0xbd9a3ee4	-0.07531527
182	0xbda2c266	-0.07947235
183	0xbd2251ab	-0.039628666
184	0xbd8db406	-0.06919102
185	0x3d5c8b70	0.053843915
186	0x3ba25d10	0.0049549416
187	0xbd68a856	-0.056801163
188	0x3da4d3c3	0.08048203
189	0x3cf33bd6	0.029691618
190	0x3cd77fd6	0.026306074
191	0xbd97a0f6	-0.07403748
192	0xbe252acd	-0.16129608
193	0xbd9a6258	-0.07538289
194	0xbcc1865b	-0.023623636
195	0x3b588256	0.003303667
196	0xbcd92f4b	-0.026511809
197	0xbd96cfdc	-0.07363865
198	0xbd345ca0	-0.044033647
199	0xbda964fc	-0.08271214
200	0x3d840293	0.064458035
201	0xbc46bb31	-0.012129591
202	0xbbb67d00	-0.0055691004
203	0xbc163f20	-0.009170324
204	0xbdf55e49	-0.11980874
205	0xbd006feb	-0.031356733
206	0xbe0b37b6	-0.13595471
207	0xbbb335eb	-0.005469074
208	0xbcd46dec	-0.025931321
209	0x3ced91fc	0.029000275
210	0x3bf4056d	0.007446936
211	0xbcae3eb0	-0.021270126
212	0x3d828d19	0.063745685
213	0x3e8008f7	0.2500684
214	0x3ddc30a5	0.10751466
215	0x3de7cba9	0.11318142
216	0xbde00b1e	-0.109396204
217	0xbd6269cf	-0.05527669
218	0xbd53f088	-0.05174306
219	0xbe16dd05	-0.1473275
220	0xbcc88e56	-0.024481934
221	0xbd6d4323	-0.057925355
222	0x3c74e1ac	0.0149463825
223	0xbd25531b	-0.04036246
224	0x3d528a48	0.051401407
225	0x3de843e2	0.113410726
226	0xbb4e0d56	-0.0031441054
227	0x3db078b1	0.0861677
228	0x3d6fa9b8	0.058511466
229	0xba36b156	-0.0006969174
230	0xbe246877	-0.16055475
231	0xbcc073b6	-0.023492675
232	0xbd57c7b7	-0.052680697
233	0x3d449c81	0.048000816
234	0xbc98d53f	-0.018656371
235	0x3c7bc180	0.015365958
236	0x3c2202e6	0.009888386
237	0x3d8de08c	0.069275945
238	0x3b1a0080	0.0023498833
239	0xbd5b56ef	-0.053549703
240	0xbe9cd127	-0.3062832
241	0xbe70f297	-0.2353004
242	0xbe14f352	-0.14545944
243	0xb8b15556	-8.455913e-05
244	0xbbf9839d	-0.0076145665
245	0xbb3bc3d6	-0.0028650663
246	0x3b99fc16	0.0046992404
247	0xbd8eb20f	-0.06967556
248	0xbd735d83	-0.05941535
249	0x3bca13d6	0.0061669154
250	0x3d56f75e	0.052482
251	0xbc79ad7d	-0.015239117
252	0xbdb653f7	-0.08902734
253	0xbc9faf46	-0.019492757
254	0xbd49f9d3	-0.049310517
255	0xbdf8e90e	-0.12153827

fc1.bias f4 [144]
0	0x3c90d552	0.017679844
1	0x3d3e38f1	0.046441022
2	0xbc15953d	-0.009129819
3	0x3c8b1577	0.016978009
4	0x3d494ed5	0.049147446
5	0xbda17d24	-0.07885197
6	0x3d84f4b2	0.064919844
7	0xbd017421	-0.03160489
8	0xbd335070	-0.043777883
9	0x3e1e7a4d	0.15476342
10	0xbae34d0f	-0.0017341691
11	0xbcfaaa2c	-0.030598722
12	0x3c37bd97	0.011214635
13	0x3d97ce43	0.07412388
14	0xbd8593f6	-0.06522362
15	0xbd36d46b	-0.04463617
16	0x3db88ef4	0.09011641
17	0xbd878e8f	-0.06618988
18	0xbd423b48	-0.047419816
19	0x3d71b62a	0.059011616
20	0x3de2cb6a	0.110739544
21	0xbc7d2422	-0.015450509
22	0x3d0d5180	0.034501553
23	0xbd30e1a2	-0.04318393
24	0xbc92cd0e	-0.017920043
25	0x3c689566	0.014195776
26	0xbd285f66	-0.041106604
27	0xbd99784d	-0.07493649
28	0x3d5fbdd7	0.054624405
29	0x3ca74e8f	0.020423202
30	0xbc6c3b63	-0.014418456
31	0x3c8d9210	0.017281562
32	0xbc59451a	-0.013261104
33	0x3d897805	0.06712345
34	0x3dbf0faa	0.093291596
35	0xbd94fe2a	-0.072750404
36	0x3db84be2	0.089988485
37	0xbd360330	-0.044436634
38	0xbd3bc229	-0.045839462
39	0xbc94efff	-0.018180845
40	0x3be607b0	0.0070199594
41	0xbc0767f5	-0.008264531
42	0xbd91d66b	-0.07120975
43	0x39ead61f	0.0004479149
44	0xbd48cb42	-0.049021967
45	0xbd3e09df	-0.046396133
46	0x3d8c078d	0.06837378
47	0xbd4c8b41	-0.04993749
48	0xbcb5c15e	-0.022186931
49	0xbd305c1b	-0.04305659
50	0x3d97649b	0.07392236
51	0x3cfa2c5a	0.030538727
52	0xbd8bdb1e	-0.06828903
53	0x3c30dfdb	0.010795559
54	0xbd8ff17f	-0.070284836
55	0xbc182cfd	-0.00928807
56	0xbd8cbf04	-0.06872371
57	0xbd888714	-0.06666389
58	0xbcc66b90	-0.024221212
59	0xbd7c1e7e	-0.061552517
60	0xbd8f0662	-0.06983639
61	0x3da6f9da	0.08153124
62	0xbd07005b	-0.032959323
63	0x3d273513	0.0408221
64	0x3d489d53	0.04897816
65	0xbcd857c0	-0.02640903
66	0xbc7ea876	-0.015543094
67	0x3d9e16ed	0.077192165
68	0x3c978a8f	0.018498687
69	0xbd098c66	-0.03358116
70	0xbc7cdd3d	-0.015433607
71	0x3dc017fd	0.093795754
72	0x3da34955	0.07972971
73	0xbdaf4d83	-0.08559706
74	0x3d462b80	0.04838133
75	0xbd6d083f	-0.057869192
76	0x3e0408fa	0.1289405
77	0x3bb7f3a3	0.0056137606
78	0x3bf10095	0.0073548057
79	0x3d6e2555	0.05814107
80	0x3d35d078	0.044388264
81	0x3ca79f23	0.020461624
82	0x3db7ebcd	0.08980522
83	0x3c38a066	0.011268711
84	0x3e06632f	0.13123773
85	0x3cbb2578	0.022845015
86	0xbd10a031	-0.03530902
87	0xbda89e98	-0.08233374
88	0x3b07ae5a	0.0020703287
89	0xbd5ba1e8	-0.053621203
90	0x3cddaa24	0.027058668
91	0x3b495755	0.003072222
92	0xbd64d526	-0.055867337
93	0xbd6d88f1	-0.057991926
94	0xbc83f550	-0.016108185
95	0xbd0a205e	-0.033722274
96	0xbe0978e7	-0.13425027
97	0xbcefb6fb	-0.029262057
98	0x3db9b56a	0.09067805
99	0xbd4f18da	-0.05056081
100	0x3d686e58	0.056745857
101	0x3ca7b9d8	0.02047436
102	0x3ca27b1d	0.019834096
103	0x3d5be760	0.053687453
104	0xbe1896dd	-0.149013
105	0xbda15733	-0.0787796
106	0xbda1d23e	-0.07901429
107	0xbd703625	-0.058645386
108	0xbc57772b	-0.01315097
109	0xbd096d96	-0.033551775
110	0xbd70d358	-0.058795303
111	0xbd6de9ab	-0.05808417
112	0xbd6dcc31	-0.05805606
113	0x3d8f642e	0.0700153
114	0xbcf47e9e	-0.029845532
115	0x3c49bd8a	0.012313256
116	0xba7a2372	-0.0009542025
117	0x3c872614	0.01649765
118	0x3dc26a81	0.0949297
119	0x3cce713f	0.025200484
120	0xbd1b5574	-0.03792329
121	0xba88a0aa	-0.0010423858
122	0xbc7a757d	-0.0152868
123	0x3b17b5db	0.0023149166
124	0xbd778968	-0.060433775
125	0x3d69367f	0.056936737
126	0xbd806cd5	-0.06270758
127	0x3d8524ce	0.065011606
128	0x3cf044fe	0.029329773
129	0xbda3d734	-0.08000031
130	0xbab3f7cf	-0.0013730469
131	0xbd2b611f	-0.04184067
132	0xbd977bca	-0.07396658
133	0xbd19c5cd	-0.037542153
134	0xbc1c41ed	-0.009537202
135	0x3d274ca1	0.040844563
136	0xbd07a677	-0.033117738
137	0x3c8a1135	0.016853908
138	0x3d3a8c28	0.04554382
139	0x3d3b76e2	0.045767672
140	0xbbfb2a7d	-0.007664977
141	0x3d1f71f3	0.03892703
142	0x3ccbcf4c	0.02487912
143	0x3c029c3c	0.0079718195

fc2.weight f4 [144, 144]
0	0xbd4cf5fb	-0.050039273
1	0x3d3a44b5	0.04547568
2	0xbd6b662b	-0.05747048
3	0x3e0ccfb3	0.13751106
4	0xbe092206	-0.13391885
5	0xbd4ee1f7	-0.050508466
6	0xbcaf4604	-0.02139569
7	0xbc72a100	-0.014808893
8	0xbd6363d8	-0.05551514
9	0xbe4d0bbc	-0.20024008
10	0xbd99e73a	-0.07514806
11	0xbd591221	-0.052995805
12	0x3a9a1b56	0.0011757414
13	0xbc6f0756	-0.014589151
14	0xbdc86804	-0.097854644
15	0xbd995bf7	-0.07488244
16	0xbf28d875	-0.6595529
17	0x3cb994b6	0.022653919
18	0xbcf12600	-0.029437065
19	0x3d548f7d	0.051894654
20	0x3e0aa3a0	0.1353898
21	0x3e30f611	0.17281367
22	0x3ac2a056	0.0014848809
23	0xbd623a8b	-0.055231612
24	0x3cc01e07	0.023451818
25	0x3db66312	0.08905615
26	0xbcf7932b	-0.030221542
27	0x3be87ac0	0.007094711
28	0xbd5791c3	-0.052629244
29	0xbe5f63cd	-0.21815415
30	0x3d97949c	0.07401392
31	0xbda5530a	-0.08072479
32	0x3d7e6a48	0.062113076
33	0x3d8d8d51	0.069117196
34	0xbd99e64c	-0.07514629
35	0xbc00cf8b	-0.007861982
36	0x3d428b43	0.04749609
37	0xbd650cd3	-0.055920433
38	0x3d2484c5	0.04016568
39	0xbcacaa26	-0.021077227
40	0xbe1ddac0	-0.15415478
41	0xbcbd4846	-0.023105752
42	0x3d84cdde	0.064845785
43	0xbd1abf4b	-0.037780087
44	0xbdeb02f5	-0.114751734
45	0x3d909220	0.07059121
46	0x3d6e0288	0.058107883
47	0xbd0653aa	-0.032794632
48	0xba425e00	-0.000741452
49	0xbca21f17	-0.019790215
50	0xbd1ffb7d	-0.039058197
51	0xbc751236	-0.014957955
52	0xbd65db3e	-0.05611729
53	0x3bdcfa1b	0.006743682
54	0xbd9c6918	-0.076372325
55	0x3bc75809	0.0060834927
56	0xbd6e0a46	-0.058115266
57	0xbc09948b	-0.008397232
58	0xbd762935	-0.06009789
59	0x3d065beb	0.032802504
60	0xbd1a1b2e	-0.037623577
61	0xbe07d4d4	-0.13264781
62	0xbe0b5083	-0.13604932
63	0x3d67bb46	0.056575082
64	0xbf1996e9	-0.59995896
65	0x3dbe3f9d	0.09289477
66	0xbca1cf5b	-0.019752195
67	0x3d9a1dcc	0.075252146
68	0xbd98efb6	-0.07467596
69	0xbd01ddd6	-0.0317057
70	0xbd96754e	-0.07346593
71	0xbcf481e1	-0.029847087
72	0x3ba5b364	0.0050567854
73	0x3c03ee60	0.0080524385
74	0xbdc446fb	-0.09583851
75	0xbd0a7f46	-0.033812784
76	0x3e7c38fc	0.24631113
77	0xbc94e120	-0.018173754
78	0x3c948d23	0.018133705
79	0xbd07f21e	-0.033189885
80	0xbd4b7334	-0.049670413
81	0xbc5b5232	-0.013386296
82	0x3d95d0f7	0.073152475
83	0xbe5984ae	-0.2124202
84	0x3e761c40	0.24034214
85	0xbc9d86bb	-0.019229284
86	0x3d407ceb	0.04699413
87	0xbc74e540	-0.014947236
88	0x3c82f955	0.015988031
89	0x3a92ac00	0.0011190176
90	0xbb851680	-0.00406152
91	0xbcaa33d0	-0.02077666
92	0x3d5d645b	0.054050785
93	0xbd942ada	-0.07234736
94	0xbc48fb4b	-0.012266944
95	0xbe3235d5	-0.17403348
96	0xbd29a69f	-0.041418668
97	0x3d13977b	0.036033135
98	0xbd28d8d0	-0.041222394
99	0x3d718436	0.058963977
100	0xbe94262d	-0.28935376
101	0xbd61d4ae	-0.055134468
102	0xbd088473	-0.03332944
103	0xbe848232	-0.2588058
104	0xbcf9167b	-0.030406227
105	0xbce66b7b	-0.028127423
106	0xbd2d99aa	-0.042382874
107	0x3d89ca24	0.067280084
108	0xbc4cee4b	-0.012507985
109	0xbd0f4fe6	-0.034988306
110	0x3cd1b986	0.02560116
111	0xbda244e5	-0.07923297
112	0x3c8bc16b	0.017060002
113	0xbd027483	-0.031849395
114	0x3db39349	0.08768327
115	0x3da489ce	0.08034097
116	0xbb1532ab	-0.0022765796
117	0x3b2163ab	0.0024626057
118	0xbe54c5a0	-0.20778513
119	0xbd10e43e	-0.03537392
120	0x3d086f66	0.033309363
121	0x3bb29efe	0.0054510823
122	0xbd03588e	-0.032066874
123	0x3dd0fd0b	0.10204514
124	0x3cde4960	0.027134597
125	0xbc69bfcb	-0.014266918
126	0xbd2f88ae	-0.042854957
127	0xbda55ae7	-0.08073979
128	0x3d9ef0eb	0.07760795
129	0xbd883909	-0.066515036
130	0x3d155c40	0.03646493
131	0x3d04f42e	0.03245943
132	0xbd524210	-0.051332533
133	0xbee31d65	-0.44358364
134	0xbd986564	-0.07441214
135	0xbd0f1978	-0.0349364
136	0x3d98836b	0.07446941
137	0x3d55a4a7	0.052158978
138	0xb823b556	-3.903111e-05
139	0x3cf6c705	0.030124197
140	0x3d2e7e6e	0.04260104
141	0x3d1a7458	0.03770861
142	0x3d8af330	0.067846656
143	0xbd072123	-0.032990586
144	0xbcdac7d9	-0.026706623
145	0xb9a2e694	-0.00031070842
146	0xbc31d068	-0.010852911
147	0x3e838be5	0.2569267
148	0x3db0e1dd	0.0863683
149	0x3c936c1d	0.017995888
150	0xbdc91869	-0.09819109
151	0xbc19b77a	-0.009382123
152	0xbd66d211	-0.05635268
153	0x3eb62bad	0.35580197
154	0x3db5ca10	0.08876431
155	0x3e1358d6	0.14389357
156	0xbc4c4c37	-0.012469343
157	0xbccc3874	-0.024929263
158	0xbcd1ea98	-0.025624558
159	0xbe21570f	-0.15755866
160	0x3e9f1224	0.31068528
161	0xbd9a5ef3	-0.075376414
162	0x3d115068	0.035477072
163	0xbd56041e	-0.05225002
164	0xbe0c9369	-0.13728108
165	0x3ede0a87	0.43367407
166	0xbd8ae3ac	-0.06781706
167	0xbd39e74f	-0.04538661
168	0x3e0ea256	0.13929114
169	0xbe9211f8	-0.28529334
170	0xbd166377	-0.03671595
171	0x3d22a809	0.039711032
172	0xbc27af5f	-0.010234683
173	0x3eb14959	0.34626272
174	0x3d2304f0	0.03979963
175	0xbd9278fc	-0.07151982
176	0xbd71f89b	-0.05907498
177	0xbbacfb9d	-0.005279018
178	0x3d6e4322	0.05816949
179	0xbc878e37	-0.016547306
180	0x3cbca99c	0.023030095
181	0x3d4f2ba6	0.050578736
182	0x3d8188b3	0.063249014
183	0x3d0286fe	0.03186702
184	0x3e206fd6	0.15667662
185	0x3da38780	0.07984829
186	0x3d8bcbd3	0.06825986
187	0x3daaa76e	0.08332716
188	0x3eda844f	0.42679068
189	0xbc3a2f44	-0.011363808
190	0x3d5bd5cc	0.05367069
191	0xbda124a5	-0.078683175
192	0x3c23e454	0.010003168
193	0x3e3b3594	0.18282157
194	0x3cabac14	0.020956077
195	0x3ceeb2ee	0.029138055
196	0xbd90d3b6	-0.07071631
197	0x3d368519	0.044560526
198	0x3e4aaf53	0.19793443
199	0x3d4433ca	0.047900952
200	0x3d6fd1d0	0.058549702
201	0xbc67e280	-0.014153123
202	0xbb3ca25b	-0.0028783295
203	0x3d156241	0.036470655
204	0x3d8f52f0	0.06998241
205	0xbeabb141	-0.33533671
206	0x3ec1bef4	0.37840998
207	0xbda40849	-0.08009393
208	0x3e57a336	0.21058354
209	0x3dbf262f	0.09333455
210	0xbd969f32	-0.07354583
211	0x3d395d8f	0.04525524
212	0x3cefbec5	0.02926577
213	0x3e1b814d	0.15186043
214	0x3d412d96	0.047162615
215	0x3e24a270	0.1607759
216	0x3c6c86fd	0.014436481
217	0x3d32dfcf	0.04367047
218	0x3e091884	0.13388258
219	0x3d973b8d	0.07384405
220	0xbec47c07	-0.38375875
221	0xba73b447	-0.0009296578
222	0x3aa6cc2d	0.0012725644
223	0xbce0ba18	-0.027432486
224	0x3ea7fd38	0.32810378
225	0x3e34c12c	0.17651814
226	0xbd9c60ec	-0.07635674
227	0x3ea2c76c	0.31792772
228	0xbe2dc5d5	-0.16969998
229	0xbcbfa11e	-0.023392256
230	0x3d0dcc50	0.034618676
231	0xbd0905be	-0.03345274
232	0x3d167005	0.036727924
233	0xbd7fafdd	-0.062423576
234	0xbd4be3b6	-0.04977771
235	0x3d6c4743	0.057685148
236	0x3da2063e	0.07911347
237	0x3d2f6d3a	0.042828776
238	0xbcbc0490	-0.022951394
239	0xbdb7d99b	-0.08977052
240	0xbe98680e	-0.29766887
241	0xbd913e88	-0.07092005
242	0x3d28708b	0.041122954
243	0x3f076c50	0.52899647
244	0x3ed91198	0.42396235
245	0x3c041be2	0.008063288
246	0xbd922fb8	-0.07138008
247	0x3f0d7e16	0.55270517
248	0xbe88d59c	-0.2672547
249	0x3dc8bba7	0.09801417
250	0x3d31050b	0.0432177
251	0x3d729d7b	0.059232216
252	0xbcc72550	-0.024309784
253	0x3d447b7e	0.047969334
254	0xbd9adbc3	-0.075614475
255	0x3cebc8a5	0.028782198

fc2.bias f4 [144]
0	0x3d9fd3c5	0.07804064
1	0x3d8c7e0a	0.068599775
2	0xbe258d2d	-0.16167136
3	0x3b103cf1	0.002200898
4	0xbd0d489f	-0.034493085
5	0x3db5bdaf	0.0887407
6	0xbd9e1203	-0.07718279
7	0x3e9662d8	0.29372287
8	0xbdc2ad75	-0.095057406
9	0xbdbafa0b	-0.09129723
10	0x3c8bb751	0.017055186
11	0xbe233533	-0.15938263
12	0x3db0d09c	0.08633539
13	0xbd172bb5	-0.036906917
14	0xbbb31e3e	-0.0054662516
15	0xbcf4e72d	-0.02989539
16	0x3d34eb39	0.04416964
17	0xbd13ec0f	-0.036113795
18	0xbe1dc7a1	-0.15408184
19	0xbd90b7d4	-0.070663124
20	0x3d11fd15	0.03564175
21	0xbd8b5253	-0.068028115
22	0x3daa6dbc	0.083217114
23	0xbe3f5925	-0.1868635
24	0x3da61910	0.08110249
25	0x3e2e4781	0.17019464
26	0xbbfc2fb4	-0.0076961163
27	0x3e138ae3	0.1440845
28	0x3e80eb18	0.25179362
29	0xbe0d10d5	-0.13775952
30	0xbdd8520e	-0.10562526
31	0x3e2d76dd	0.16939874
32	0xbd1aa90d	-0.037758876
33	0xbd879996	-0.06621091
34	0xbcb849d1	-0.022496136
35	0xbd3e9be8	-0.046535403
36	0xbe4190e2	-0.18902925
37	0xbd6feac7	-0.05857351
38	0x3e65b8ba	0.22433749
39	0x3cdc81b2	0.026917312
40	0xbc7f6e96	-0.015590331
41	0x3d3223bd	0.043491114
42	0x3d91fd4f	0.07128393
43	0xbd4535a9	-0.048146877
44	0x3d5f801a	0.054565527
45	0x3d48931d	0.048968423
46	0xbcaf259e	-0.021380242
47	0x3d28dd8e	0.041226916
48	0xbce90247	-0.028443469
49	0xbd998f25	-0.07498006
50	0x3e1269e5	0.14298208
51	0x3bf3548a	0.0074258493
52	0xbcc2aee5	-0.023765037
53	0x3d8b4995	0.06801144
54	0xbcffdf53	-0.031234419
55	0xbd91c371	-0.071173556
56	0x3e2fb884	0.17160231
57	0xbc3804c9	-0.01123161
58	0xbd8cf818	-0.06883258
59	0x3daff02a	0.085907295
60	0xbd461892	-0.048363276
61	0xbd94c61e	-0.0726435
62	0x3e00ab78	0.1256541
63	0x3e275588	0.16341221
64	0x3d2ed7b9	0.042686198
65	0xbdefceb2	-0.11709346
66	0x3e086e21	0.13323261
67	0xbe06d1d4	-0.1316598
68	0x3d9eb86a	0.07750018
69	0x3e481b5e	0.1954169
70	0x3c6104df	0.0137340715
71	0x3d8e4ef6	0.06948654
72	0xbda4a09e	-0.08038448
73	0xbd1af074	-0.03782697
74	0xbdfea5c2	-0.124339595
75	0x3c807f0d	0.015685583
76	0xbcb750f5	-0.02237747
77	0x3d8b03b2	0.06787814
78	0x3e3ee9a7	0.18643819
79	0x3d924d02	0.07143594
80	0xbdbbadd1	-0.09164012
81	0x3e30bfec	0.17260712
82	0xbd773de4	-0.060361758
83	0xbdc4796a	-0.095934704
84	0xbdd1de4a	-0.102474764
85	0xbcb62197	-0.022232814
86	0xbc0f6944	-0.008753125
87	0x3cf2175b	0.029552152
88	0xbdf76b11	-0.12080968
89	0x3cc81a03	0.024426466
90	0xbda228c9	-0.079179354
91	0x3e27fa0e	0.16403982
92	0xbcaa301e	-0.020774897
93	0x3dc7caf8	0.0975551
94	0x3dd17bfe	0.10228728
95	0xbc903b40	-0.017606378
96	0x3e2200c6	0.15820608
97	0xbdb7a389	-0.08966739
98	0x3d10bef8	0.035338372
99	0xbe7f19bb	-0.24912159
100	0x3d743571	0.05962128
101	0x3e8d46cf	0.27593085
102	0x3d88b35f	0.06674837
103	0xbd6f4c9c	-0.05842267
104	0xbcc17897	-0.023617072
105	0xbcba2069	-0.022720532
106	0x3df022d3	0.11725392
107	0xbd43b77c	-0.047782406
108	0xbda5f06f	-0.081025
109	0xbc7a0ebe	-0.015262304
110	0xbe28f1b6	-0.16498455
111	0x3e1efe02	0.15526584
112	0x3deb5aa6	0.11491899
113	0xbc98e146	-0.018662106
114	0x3cb65615	0.022257844
115	0xbc7fbe62	-0.015609356
116	0xbd9606dc	-0.07325527
117	0xbd99fbdd	-0.07518742
118	0x3d405b24	0.04696192
119	0xbe015052	-0.12628296
120	0xbd88b7f7	-0.066757135
121	0x3d79713d	0.060899008
122	0xbd9e43fb	-0.0772781
123	0x3d8f692f	0.07002484
124	0x3dd19a43	0.10234501
125	0x3da340aa	0.07971318
126	0xbd1bb88d	-0.0380178
127	0x3da0509c	0.07827875
128	0xbd6e4e10	-0.058179915
129	0xbd8b4a6a	-0.06801303
130	0xbe118f05	-0.14214714
131	0x3dd6da54	0.104908615
132	0xbcaaac22	-0.020834032
133	0xbe5b3dad	-0.21410246
134	0xbe1c3d9f	-0.15257882
135	0x3d2a941d	0.041645158
136	0xbdc0a172	-0.09405793
137	0x3dd7882f	0.10524022
138	0x3d867a86	0.06566338
139	0x3bcc4e5c	0.006234927
140	0xbdc28ee0	-0.094999075
141	0x3c88008d	0.016601825
142	0x3d8cf268	0.06882173
143	0x3ccf79d8	0.025326654

fc3.weight f4 [4, 144]
0	0x3e8b3e7c	0.2719611
1	0xbe724e4f	-0.23662685
2	0x3dffa308	0.124822676
3	0xbd17faec	-0.037104532
4	0x3df6a38a	0.12042911
5	0x3ebd0585	0.36918274
6	0xbdec56b0	-0.11539972
7	0x3e672f85	0.22576721
8	0xbe8c1d6a	-0.2736619
9	0x3d1168a2	0.035500176
10	0x3c02e98d	0.007990253
11	0xbc41bdf3	-0.011825073
12	0xbc0df7a4	-0.008664999
13	0xbdfb447f	-0.12268924
14	0x3e04b652	0.12960175
15	0xbd1179f8	-0.03551671
16	0x3e467f35	0.19384463
17	0xbdd89a07	-0.105762534
18	0xbe19f1ef	-0.15033697
19	0xbe627580	-0.22115135
20	0xbe334c1e	-0.17509505
21	0x3e048cda	0.12944356
22	0xbe88cf46	-0.26720637
23	0xbe9e943b	-0.30972466
24	0xbd87301f	-0.06600975
25	0xbe931c9b	-0.28732762
26	0x3e60d3e2	0.21955827
27	0x3e54ecd0	0.20793462
28	0x3e265273	0.1624239
29	0xbefe4eaf	-0.49669406
30	0x3e9beb61	0.30453017
31	0x3e029a7b	0.12754242
32	0xbdab899c	-0.08375856
33	0x3ba824ba	0.0051313313
34	0x3db2a103	0.08722117
35	0xbd867b76	-0.06566517
36	0x3d10819f	0.035279866
37	0x3db32837	0.08747905
38	0xbefc2941	-0.49250224
39	0xbec346f1	-0.38140061
40	0xbe965755	-0.29363504
41	0xbedf4714	-0.43608916
42	0xbde52ed9	-0.11190576
43	0x3cc7833e	0.024354573
44	0xbd2db682	-0.04241038
45	0x3e15e80a	0.14639297
46	0xbda3c267	-0.07996064
47	0xbdd38c02	-0.10329439
48	0x3b9809d4	0.0046398435
49	0xbd41b0b9	-0.047287676
50	0x3e3944b3	0.18092613
51	0xbe6a8cdf	-0.229053
52	0xbeaee7e4	-0.34161294
53	0x3ecca976	0.39973038
54	0xbc1be2a8	-0.009514488
55	0xbdb8070f	-0.08985721
56	0x3e015684	0.1263066
57	0xbdf7664a	-0.12080057
58	0xbd448e2c	-0.04798715
59	0xbeb43f9c	-0.3520478
60	0xbdc0705b	-0.0939643
61	0xbd201c94	-0.039089754
62	0x3e43ea74	0.19132406
63	0xbe10cd93	-0.1414092
64	0x3a21f173	0.00061776413
65	0x3d6c183c	0.0576403
66	0x3df2d57b	0.118571244
67	0x3d91d931	0.07121504
68	0x3e8f79c6	0.28022593
69	0xbe40b4dd	-0.18818994
70	0x3e40b3c5	0.18818577
71	0xbe49bf73	-0.19701938
72	0xbcebc54f	-0.028780608
73	0xbc90443b	-0.01761066
74	0xbdf176ec	-0.11790261
75	0xbe50349a	-0.20332566
76	0xbe6a2f9b	-0.22869723
77	0x3ead6f39	0.3387392
78	0x3e66a355	0.22523244
79	0x3cfc34f3	0.030786967
80	0xbb4ff51f	-0.0031731797
81	0x3da59040	0.08084154
82	0x3eba16e1	0.3634558
83	0x3e5252fc	0.20539469
84	0x3e2edd62	0.17076638
85	0xbd831c3b	-0.06401869
86	0x3e637388	0.2221204
87	0xbe078470	-0.13234115
88	0x3d91a015	0.07110611
89	0x39802d07	0.0002444761
90	0xbf0aaa94	-0.5416653
91	0x3e9f2137	0.31080028
92	0xbe80c165	-0.25147548
93	0xbe5b5c62	-0.2142196
94	0xbec0edc3	-0.37681398
95	0xbdee8b93	-0.116477154
96	0x3dda73a9	0.10666592
97	0xbedd4b1f	-0.43221375
98	0x3deb34e1	0.11484695
99	0xbde81d13	-0.113336705
100	0x3e3014bb	0.17195408
101	0xbeae386b	-0.34027418
102	0xbae2fa6c	-0.0017317063
103	0xbbb4d5be	-0.005518644
104	0x3d7e6011	0.062103335
105	0x3b59541b	0.0033161703
106	0x3f9a1c31	1.2039853
107	0xbead716e	-0.33875602
108	0x3d52d353	0.051471066
109	0x3cd3b59f	0.02584344
110	0x3e19cf74	0.15020543
111	0x3e8f92bf	0.28041646
112	0x3e5d3a8f	0.2160437
113	0x3ab73274	0.0013976828
114	0xbe44fcf2	-0.19237116
115	0xbe25da14	-0.16196471
116	0xbc202dce	-0.009776546
117	0xbb89dedd	-0.0042074756
118	0x3eb2353f	0.3480625
119	0xbdfcf8ef	-0.12352168
120	0xbcca703d	-0.024711723
121	0x3e1f8126	0.1557661
122	0xbe40e032	-0.18835524
123	0x3e115fa8	0.14196646
124	0xbe81be9e	-0.25340742
125	0xbea5591f	-0.32294556
126	0xbe4a5346	-0.19758329
127	0xbe0e27e9	-0.13882412
128	0xbe41b295	-0.1891578
129	0xbd11f68a	-0.03563551
130	0xbc9a6fd0	-0.018852144
131	0x3ece156d	0.40250722
132	0xbe140bd7	-0.14457642
133	0xbdc25841	-0.09489489
134	0x3ccbccc4	0.024877913
135	0x3e4b7c0f	0.19871543
136	0x3d6b68b1	0.05747289
137	0xbe9340ce	-0.2876038
138	0x3f4e4652	0.8057605
139	0xbd67dbaf	-0.05660599
140	0x3d2697f8	0.040672272
141	0xbddddedf	-0.10833525
142	0x3e4380f4	0.1909216
143	0x3e923943	0.28559312
144	0x3d59f58f	0.0532127
145	0xbceef27d	-0.029168362
146	0x3e862e8d	0.2620739
147	0xbc6f5180	-0.014606833
148	0x3eafb736	0.34319466
149	0x3d4e418e	0.050355487
150	0x3d9406e6	0.07227878
151	0x3e801a1b	0.25019917
152	0xbd604776	-0.05475565
153	0xbe9a2bb0	-0.30111456
154	0x3d8a1176	0.06741612
155	0x3f0632a3	0.52421016
156	0xbea6ede7	-0.3260338
157	0xbe023f38	-0.12719429
158	0x3d8c1d68	0.06841546
159	0x3d85b2aa	0.06528218
160	0x3e8ee01a	0.2790535
161	0x3d3992fe	0.0453062
162	0x3ef8aec8	0.48570848
163	0xbe15323b	-0.14569943
164	0xbe632002	-0.22180179
165	0x3e6e8fc2	0.23297027
166	0xbe203e9a	-0.1564888
167	0x3f016540	0.5054512
168	0xbeba27ca	-0.36358482
169	0xbebb38cf	-0.3656678
170	0x3ea0927d	0.31361762
171	0x3e54c686	0.20778856
172	0x3c7897a2	0.015172871
173	0xbd4b8977	-0.049691644
174	0x3e8b0064	0.27148736
175	0x3e1413ac	0.14460629
176	0x3dab17ca	0.08354147
177	0x3ccd03dd	0.025026256
178	0x3c1b9509	0.009495982
179	0x3e39171d	0.18075223
180	0x3e1a5dab	0.15074794
181	0x3d283019	0.041061494
182	0xbe052abb	-0.13004582
183	0xbe306a76	-0.17228112
184	0xbd00305f	-0.03129613
185	0xbe8645d8	-0.26225162
186	0xbe0e275b	-0.138822
187	0xbeab8cd8	-0.33505893
188	0xbcb1063e	-0.021609422
189	0x3e9467a4	0.28985322
190	0xbc29b70f	-0.010358586
191	0xbe36b33a	-0.17841807
192	0xbd689e50	-0.056791604
193	0x3ebe9865	0.37225643
194	0x3e611288	0.21979725
195	0xbdb6149e	-0.08890651
196	0x3eff1da1	0.49827293
197	0x3ea6978b	0.32537493
198	0x3d10f57e	0.03539037
199	0x3e0f2b55	0.13981374
200	0x3e3ffab3	0.18747978
201	0xbe0d4dda	-0.1379923
202	0x3c89ca46	0.016820084
203	0xbdcbbcdc	-0.099481314
204	0xbeee58f7	-0.4655225
205	0xbe461291	-0.1934302
206	0x3e026790	0.12734818
207	0xbec77d7d	-0.38962927
208	0xbcd50b28	-0.026006296
209	0x3d856910	0.0651418
210	0x3eaa0cb7	0.33212826
211	0x3e236655	0.15957005
212	0x3e0feb19	0.14054526
213	0xbe889f11	-0.26683858
214	0x3ec1c41c	0.37844932
215	0xbe0b41a1	-0.13599254
216	0xbcc6deb2	-0.024276111
217	0xbf01ba67	-0.5067505
218	0x3e695aa0	0.22788477
219	0xbde62b4d	-0.11238728
220	0xbeb34cb1	-0.35019448
221	0x3e59dcb9	0.21275605
222	0x3e357f87	0.17724429
223	0xbe80779b	-0.25091252
224	0xbc9c30ff	-0.019066332
225	0x3e89bbf4	0.2690121
226	0xbde1adf8	-0.1101951
227	0x3eb797f5	0.35858122
228	0x3efd21fd	0.49439994
229	0x3d054d9d	0.03254472
230	0x3e9bb913	0.30414638
231	0xbdbce3e9	-0.09223158
232	0x3d768972	0.06018967
233	0xbc87ddd5	-0.01658527
234	0xbe1fbcd0	-0.1559937
235	0x3ec01293	0.3751417
236	0xbe791b58	-0.24326837
237	0xbe97ca90	-0.2964673
238	0xbdb9e7ce	-0.09077416
239	0xbeb5e317	-0.35524818
240	0x3e892b90	0.26791048
241	0xbd60fee8	-0.054930598
242	0x3e91ba5c	0.28462493
243	0x3f3b20bc	0.73096824
244	0x3d819b93	0.063285016
245	0xbe443674	-0.19161397
246	0xbe8d621a	-0.27613908
247	0x3d89d88c	0.06730756
248	0x3d3084d3	0.04309542
249	0x3c40d661	0.011769862
250	0x3f1cd2b5	0.61259013
251	0xbe34c4ea	-0.17653242
252	0xbd617e88	-0.05505231
253	0x3a960df0	0.0011448245
254	0xbe3e2847	-0.18570052
255	0x3e973eed	0.29540196

fc3.bias f4 [4]
0	0xbec281d6	-0.37989682
1	0xbebb93ef	-0.36636302
2	0xbd61b6ce	-0.055105977
3	0xbe64514b	-0.22296636
